ML_examples/layer0.npy (npy, 504 bytes, 1 tensors)

array (column-major) f4 [2, 30]
0	0x3d6f88a5	0.058479924
1	0xbddc4063	-0.10754468
2	0x3dd46d5e	0.10372423
3	0xbedf753b	-0.43644127
4	0xbebbcdf9	-0.36680582
5	0xbf02dbec	-0.51116824
6	0x3c5f88e8	0.013643481
7	0xbef064b9	-0.46951845
8	0x3d877d81	0.06615735
9	0xbe1714ab	-0.14753978
10	0xbe5cd852	-0.21566895
11	0xbe8d979a	-0.27654725
12	0xbedf8f8a	-0.436642
13	0x3e9d3a30	0.30708456
14	0xbd3978a8	-0.045281082
15	0x3dd737fc	0.10508725
16	0xbdfeafc0	-0.124358654
17	0x3ebd32e9	0.36952904
18	0x3e19a6be	0.15005013
19	0x3ecdf2b7	0.4022424
20	0x3d9154da	0.07096262
21	0xbe06b3e9	-0.13154568
22	0x3e855cad	0.26047269
23	0x3e41acaf	0.1891353
24	0x3de78fa2	0.11306693
25	0xbb2928b5	-0.0025811617
26	0xbf030002	-0.51171887
27	0x3d9ac783	0.07557585
28	0x3d3bdf74	0.0458674
29	0x3e0e2c1f	0.13884018
30	0x3d855abc	0.06511447
31	0xbe0efccf	-0.13963626
32	0xbe2416a8	-0.16024268
33	0x3e8ac1cd	0.27100983
34	0x3e368bfe	0.1782684
35	0xbdc12f6c	-0.09432873
36	0xbe26a793	-0.16274862
37	0xbe884c86	-0.26620883
38	0xbe23764e	-0.15963098
39	0xbe73dea4	-0.238154
40	0xbe3bbbcc	-0.18333358
41	0x3e407aea	0.18796888
42	0xbec392ef	-0.3819804
43	0x3eac8976	0.33698624
44	0xbead0414	-0.33792174
45	0x3d0ac216	0.0338765
46	0xbef898e3	-0.48554143
47	0xbeb2a3b8	-0.34890532
48	0xbe973712	-0.29534203
49	0xbe75d23a	-0.24005976
50	0xbe209978	-0.15683544
51	0xbe5e0bd0	-0.21684194
52	0x3d5ed420	0.054401517
53	0xbe4ede05	-0.20201881
54	0xbe817ad7	-0.25289032
55	0xbe976d9b	-0.2957581
56	0x3dac1f68	0.08404428
57	0xbd33262f	-0.043737587
58	0xbd14f911	-0.03637034
59	0xbe790f1a	-0.24322167
